…
Accuracy for network_configuration = [512, 32], optimizer=adam , dropout_rate=0.4 :  10.000000149011612
########################################################################################
Training started for network_configuration = [512, 32], optimizer=rmsprop , dropout_rate=0 : 
Model: "model_5"
_________________________________________________________________
 Layer (type)                Output Shape              Param #   
=================================================================
 input_7 (InputLayer)        [(None, 32, 32, 3)]       0         
                                                                 
 flatten_6 (Flatten)         (None, 3072)              0         
                                                                 
 dense_18 (Dense)            (None, 512)               1573376   
                                                                 
 dropout_12 (Dropout)        (None, 512)               0         
                                                                 
 dense_19 (Dense)            (None, 32)                16416     
                                                                 
 dropout_13 (Dropout)        (None, 32)                0         
                                                                 
 dense_20 (Dense)            (None, 10)                330       
                                                                 
=================================================================
Total params: 1,590,122
Trainable params: 1,590,122
Non-trainable params: 0
_________________________________________________________________
Epoch 1/50
1563/1563 - 6s - loss: 2.3142 - accuracy: 0.0983 - val_loss: 2.3026 - val_accuracy: 0.1000 - 6s/epoch - 4ms/step
…
Accuracy for network_configuration = [512, 32], optimizer=sgd , dropout_rate=0.4 :  54.409998655319214
########################################################################################
Training started for network_configuration = [512, 256, 32], optimizer=adam , dropout_rate=0 : 
Model: "model_15"
_________________________________________________________________
 Layer (type)                Output Shape              Param #   
=================================================================
 input_17 (InputLayer)       [(None, 32, 32, 3)]       0         
                                                                 
 flatten_16 (Flatten)        (None, 3072)              0         
                                                                 
 dense_48 (Dense)            (None, 512)               1573376   
                                                                 
 dropout_32 (Dropout)        (None, 512)               0         
                                                                 
 dense_49 (Dense)            (None, 256)               131328    
                                                                 
 dropout_33 (Dropout)        (None, 256)               0         
                                                                 
 dense_50 (Dense)            (None, 32)                8224      
                                                                 
 dropout_34 (Dropout)        (None, 32)                0         
                                                                 
 dense_51 (Dense)            (None, 10)                330       
                                                                 
=================================================================
Total params: 1,713,258
Trainable params: 1,713,258
Non-trainable params: 0
_________________________________________________________________
Epoch 1/50
1563/1563 - 6s - loss: 2.3069 - accuracy: 0.0975 - val_loss: 2.3026 - val_accuracy: 0.1000 - 6s/epoch - 4ms/step
…
Accuracy for network_configuration = [512, 256, 32], optimizer=sgd , dropout_rate=0.4 :  54.1700005531311
########################################################################################
Training started for network_configuration = [512, 256, 128, 32], optimizer=adam , dropout_rate=0 : 
Model: "model_30"
_________________________________________________________________
 Layer (type)                Output Shape              Param #   
=================================================================
 input_32 (InputLayer)       [(None, 32, 32, 3)]       0         
                                                                 
 flatten_31 (Flatten)        (None, 3072)              0         
                                                                 
 dense_108 (Dense)           (None, 512)               1573376   
                                                                 
 dropout_77 (Dropout)        (None, 512)               0         
                                                                 
 dense_109 (Dense)           (None, 256)               131328    
                                                                 
 dropout_78 (Dropout)        (None, 256)               0         
                                                                 
 dense_110 (Dense)           (None, 128)               32896     
                                                                 
 dropout_79 (Dropout)        (None, 128)               0         
                                                                 
 dense_111 (Dense)           (None, 32)                4128      
                                                                 
 dropout_80 (Dropout)        (None, 32)                0         
                                                                 
 dense_112 (Dense)           (None, 10)                330       
                                                                 
=================================================================
Total params: 1,742,058
Trainable params: 1,742,058
Non-trainable params: 0
_________________________________________________________________
Epoch 1/50
1563/1563 - 7s - loss: 2.1921 - accuracy: 0.1529 - val_loss: 2.0461 - val_accuracy: 0.2089 - 7s/epoch - 4ms/step
…
Accuracy for network_configuration = [512, 256, 128, 32], optimizer=sgd , dropout_rate=0.4 :  53.359997272491455
########################################################################################
Training started for network_configuration = [512, 256, 128, 64, 32], optimizer=adam , dropout_rate=0 : 
Model: "model_45"
_________________________________________________________________
 Layer (type)                Output Shape              Param #   
=================================================================
 input_47 (InputLayer)       [(None, 32, 32, 3)]       0         
                                                                 
 flatten_46 (Flatten)        (None, 3072)              0         
                                                                 
 dense_183 (Dense)           (None, 512)               1573376   
                                                                 
 dropout_137 (Dropout)       (None, 512)               0         
                                                                 
 dense_184 (Dense)           (None, 256)               131328    
                                                                 
 dropout_138 (Dropout)       (None, 256)               0         
                                                                 
 dense_185 (Dense)           (None, 128)               32896     
                                                                 
 dropout_139 (Dropout)       (None, 128)               0         
                                                                 
 dense_186 (Dense)           (None, 64)                8256      
                                                                 
 dropout_140 (Dropout)       (None, 64)                0         
                                                                 
 dense_187 (Dense)           (None, 32)                2080      
                                                                 
 dropout_141 (Dropout)       (None, 32)                0         
                                                                 
 dense_188 (Dense)           (None, 10)                330       
                                                                 
=================================================================
Total params: 1,748,266
Trainable params: 1,748,266
Non-trainable params: 0
_________________________________________________________________
Epoch 1/50
1563/1563 - 6s - loss: 2.1288 - accuracy: 0.1811 - val_loss: 1.9814 - val_accuracy: 0.2354 - 6s/epoch - 4ms/step
…
